…
Each of these models were around 260,000 total parameters.  So even though 4 different models were used, they still satisfied the condition of being under 2 million learnable parameters.  With all 4 models my total learnable parameters was slightly above 1 million.  This made it easier for me to train the models on my laptop where computing resources are limited.  The other advantage of this method is that it allowed each model to overfit to their desired target values.\
\
\

\f0\b Base Model Architecture:
\f1\b0 \
_________________________________________________________________\
Layer (type)                 Output Shape              Param #   \
=================================================================\
reshape (Reshape)            (None, 200, 200, 1)       0         \
_________________________________________________________________\
conv2d (Conv2D)              (None, 200, 200, 16)      160       \
_________________________________________________________________\
batch_normalization (BatchNo (None, 200, 200, 16)      64        \
_________________________________________________________________\
activation (Activation)      (None, 200, 200, 16)      0         \
_________________________________________________________________\
conv2d_1 (Conv2D)            (None, 100, 100, 16)      2320      \
_________________________________________________________________\
batch_normalization_1 (Batch (None, 100, 100, 16)      64        \
_________________________________________________________________\
activation_1 (Activation)    (None, 100, 100, 16)      0         \
_________________________________________________________________\
conv2d_2 (Conv2D)            (None, 100, 100, 16)      2320      \
_________________________________________________________________\
batch_normalization_2 (Batch (None, 100, 100, 16)      64        \
_________________________________________________________________\
activation_2 (Activation)    (None, 100, 100, 16)      0         \
_________________________________________________________________\
conv2d_3 (Conv2D)            (None, 50, 50, 16)        2320      \
_________________________________________________________________\
batch_normalization_3 (Batch (None, 50, 50, 16)        64        \
_________________________________________________________________\
activation_3 (Activation)    (None, 50, 50, 16)        0         \
_________________________________________________________________\
conv2d_4 (Conv2D)            (None, 50, 50, 32)        4640      \
_________________________________________________________________\
batch_normalization_4 (Batch (None, 50, 50, 32)        128       \
_________________________________________________________________\
activation_4 (Activation)    (None, 50, 50, 32)        0         \
_________________________________________________________________\
conv2d_5 (Conv2D)            (None, 25, 25, 32)        9248      \
_________________________________________________________________\
batch_normalization_5 (Batch (None, 25, 25, 32)        128       \
_________________________________________________________________\
activation_5 (Activation)    (None, 25, 25, 32)        0         \
_________________________________________________________________\
conv2d_6 (Conv2D)            (None, 25, 25, 32)        9248      \
_________________________________________________________________\
batch_normalization_6 (Batch (None, 25, 25, 32)        128       \
_________________________________________________________________\
activation_6 (Activation)    (None, 25, 25, 32)        0         \
_________________________________________________________________\
conv2d_7 (Conv2D)            (None, 13, 13, 32)        9248      \
_________________________________________________________________\
batch_normalization_7 (Batch (None, 13, 13, 32)        128       \
_________________________________________________________________\
activation_7 (Activation)    (None, 13, 13, 32)        0         \
_________________________________________________________________\
conv2d_8 (Conv2D)            (None, 13, 13, 48)        13872     \
_________________________________________________________________\
batch_normalization_8 (Batch (None, 13, 13, 48)        192       \
_________________________________________________________________\
activation_8 (Activation)    (None, 13, 13, 48)        0         \
_________________________________________________________________\
conv2d_9 (Conv2D)            (None, 7, 7, 48)          20784     \
_________________________________________________________________\
batch_normalization_9 (Batch (None, 7, 7, 48)          192       \
_________________________________________________________________\
activation_9 (Activation)    (None, 7, 7, 48)          0         \
_________________________________________________________________\
conv2d_10 (Conv2D)           (None, 7, 7, 48)          20784     \
_________________________________________________________________\
batch_normalization_10 (Batc (None, 7, 7, 48)          192       \
_________________________________________________________________\
activation_10 (Activation)   (None, 7, 7, 48)          0         \
_________________________________________________________________\
conv2d_11 (Conv2D)           (None, 4, 4, 48)          20784     \
_________________________________________________________________\
batch_normalization_11 (Batc (None, 4, 4, 48)          192       \
_________________________________________________________________\
activation_11 (Activation)   (None, 4, 4, 48)          0         \
_________________________________________________________________\
conv2d_12 (Conv2D)           (None, 4, 4, 64)          27712     \
_________________________________________________________________\
batch_normalization_12 (Batc (None, 4, 4, 64)          256       \
_________________________________________________________________\
activation_12 (Activation)   (None, 4, 4, 64)          0         \
_________________________________________________________________\
conv2d_13 (Conv2D)           (None, 2, 2, 64)          36928     \
_________________________________________________________________\
batch_normalization_13 (Batc (None, 2, 2, 64)          256       \
_________________________________________________________________\
activation_13 (Activation)   (None, 2, 2, 64)          0         \
_________________________________________________________________\
conv2d_14 (Conv2D)           (None, 2, 2, 64)          36928     \
_________________________________________________________________\
batch_normalization_14 (Batc (None, 2, 2, 64)          256       \
_________________________________________________________________\
activation_14 (Activation)   (None, 2, 2, 64)          0         \
_________________________________________________________________\
conv2d_15 (Conv2D)           (None, 1, 1, 64)          36928     \
_________________________________________________________________\
batch_normalization_15 (Batc (None, 1, 1, 64)          256       \
_________________________________________________________________\
activation_15 (Activation)   (None, 1, 1, 64)          0         \
_________________________________________________________________\
flatten (Flatten)            (None, 64)                0         \
_________________________________________________________________\
dense (Dense)                (None, 25)                1625      \
_________________________________________________________________\
batch_normalization_16 (Batc (None, 25)                100       \
_________________________________________________________________\
activation_16 (Activation)   (None, 25)                0         \
_________________________________________________________________\
dense_1 (Dense)              (None, 4)                 104       \
=================================================================\
Total params: 258,613\
Trainable params: 257,283\
Non-trainable params: 1,330\
_________________________________________________________________\
\

\f0\b Detection Model:\

\f1\b0 _________________________________________________________________\
Layer (type)                 Output Shape              Param #   \
=================================================================\
reshape_input (InputLayer)   [(None, 200, 200)]        0         \
_________________________________________________________________\
reshape (Reshape)            (None, 200, 200, 1)       0         \
_________________________________________________________________\
conv2d (Conv2D)              (None, 200, 200, 16)      160       \
_________________________________________________________________\
batch_normalization (BatchNo (None, 200, 200, 16)      64        \
_________________________________________________________________\
activation (Activation)      (None, 200, 200, 16)      0         \
_________________________________________________________________\
conv2d_1 (Conv2D)            (None, 100, 100, 16)      2320      \
_________________________________________________________________\
batch_normalization_1 (Batch (None, 100, 100, 16)      64        \
_________________________________________________________________\
activation_1 (Activation)    (None, 100, 100, 16)      0         \
_________________________________________________________________\
conv2d_2 (Conv2D)            (None, 100, 100, 16)      2320      \
_________________________________________________________________\
batch_normalization_2 (Batch (None, 100, 100, 16)      64        \
_________________________________________________________________\
activation_2 (Activation)    (None, 100, 100, 16)      0         \
_________________________________________________________________\
conv2d_3 (Conv2D)            (None, 50, 50, 16)        2320      \
_________________________________________________________________\
batch_normalization_3 (Batch (None, 50, 50, 16)        64        \
_________________________________________________________________\
activation_3 (Activation)    (None, 50, 50, 16)        0         \
_________________________________________________________________\
conv2d_4 (Conv2D)            (None, 50, 50, 32)        4640      \
_________________________________________________________________\
batch_normalization_4 (Batch (None, 50, 50, 32)        128       \
_________________________________________________________________\
activation_4 (Activation)    (None, 50, 50, 32)        0         \
_________________________________________________________________\
conv2d_5 (Conv2D)            (None, 25, 25, 32)        9248      \
_________________________________________________________________\
batch_normalization_5 (Batch (None, 25, 25, 32)        128       \
_________________________________________________________________\
activation_5 (Activation)    (None, 25, 25, 32)        0         \
_________________________________________________________________\
conv2d_6 (Conv2D)            (None, 25, 25, 32)        9248      \
_________________________________________________________________\
batch_normalization_6 (Batch (None, 25, 25, 32)        128       \
_________________________________________________________________\
activation_6 (Activation)    (None, 25, 25, 32)        0         \
_________________________________________________________________\
conv2d_7 (Conv2D)            (None, 13, 13, 32)        9248      \
_________________________________________________________________\
batch_normalization_7 (Batch (None, 13, 13, 32)        128       \
_________________________________________________________________\
activation_7 (Activation)    (None, 13, 13, 32)        0         \
_________________________________________________________________\
conv2d_8 (Conv2D)            (None, 13, 13, 48)        13872     \
_________________________________________________________________\
batch_normalization_8 (Batch (None, 13, 13, 48)        192       \
_________________________________________________________________\
activation_8 (Activation)    (None, 13, 13, 48)        0         \
_________________________________________________________________\
conv2d_9 (Conv2D)            (None, 7, 7, 48)          20784     \
_________________________________________________________________\
batch_normalization_9 (Batch (None, 7, 7, 48)          192       \
_________________________________________________________________\
activation_9 (Activation)    (None, 7, 7, 48)          0         \
_________________________________________________________________\
conv2d_10 (Conv2D)           (None, 7, 7, 48)          20784     \
_________________________________________________________________\
batch_normalization_10 (Batc (None, 7, 7, 48)          192       \
_________________________________________________________________\
activation_10 (Activation)   (None, 7, 7, 48)          0         \
_________________________________________________________________\
conv2d_11 (Conv2D)           (None, 4, 4, 48)          20784     \
_________________________________________________________________\
batch_normalization_11 (Batc (None, 4, 4, 48)          192       \
_________________________________________________________________\
activation_11 (Activation)   (None, 4, 4, 48)          0         \
_________________________________________________________________\
conv2d_12 (Conv2D)           (None, 4, 4, 64)          27712     \
_________________________________________________________________\
batch_normalization_12 (Batc (None, 4, 4, 64)          256       \
_________________________________________________________________\
activation_12 (Activation)   (None, 4, 4, 64)          0         \
_________________________________________________________________\
conv2d_13 (Conv2D)           (None, 2, 2, 64)          36928     \
_________________________________________________________________\
batch_normalization_13 (Batc (None, 2, 2, 64)          256       \
_________________________________________________________________\
activation_13 (Activation)   (None, 2, 2, 64)          0         \
_________________________________________________________________\
conv2d_14 (Conv2D)           (None, 2, 2, 64)          36928     \
_________________________________________________________________\
batch_normalization_14 (Batc (None, 2, 2, 64)          256       \
_________________________________________________________________\
activation_14 (Activation)   (None, 2, 2, 64)          0         \
_________________________________________________________________\
conv2d_15 (Conv2D)           (None, 1, 1, 64)          36928     \
_________________________________________________________________\
batch_normalization_15 (Batc (None, 1, 1, 64)          256       \
_________________________________________________________________\
activation_15 (Activation)   (None, 1, 1, 64)          0         \
_________________________________________________________________\
flatten (Flatten)            (None, 64)                0         \
_________________________________________________________________\
dense (Dense)                (None, 25)                1625      \
_________________________________________________________________\
d1 (Dense)                   (None, 100)               2600      \
_________________________________________________________________\
relu1 (Activation)           (None, 100)               0         \
_________________________________________________________________\
d2 (Dense)                   (None, 1)                 101       \
_________________________________________________________________\
tanh1 (Activation)           (None, 1)                 0         \
=================================================================\
Total params: 261,110\
Trainable params: 259,830\
Non-trainable params: 1,280\
_________________________________________________________________\
\

\f0\b Position Model:
\f1\b0 \
Layer (type)                 Output Shape              Param #   \
=================================================================\
reshape_input (InputLayer)   [(None, 200, 200)]        0         \
_________________________________________________________________\
reshape (Reshape)            (None, 200, 200, 1)       0         \
_________________________________________________________________\
conv2d (Conv2D)              (None, 200, 200, 16)      160       \
_________________________________________________________________\
batch_normalization (BatchNo (None, 200, 200, 16)      64        \
_________________________________________________________________\
activation (Activation)      (None, 200, 200, 16)      0         \
_________________________________________________________________\
conv2d_1 (Conv2D)            (None, 100, 100, 16)      2320      \
_________________________________________________________________\
batch_normalization_1 (Batch (None, 100, 100, 16)      64        \
_________________________________________________________________\
activation_1 (Activation)    (None, 100, 100, 16)      0         \
_________________________________________________________________\
conv2d_2 (Conv2D)            (None, 100, 100, 16)      2320      \
_________________________________________________________________\
batch_normalization_2 (Batch (None, 100, 100, 16)      64        \
_________________________________________________________________\
activation_2 (Activation)    (None, 100, 100, 16)      0         \
_________________________________________________________________\
conv2d_3 (Conv2D)            (None, 50, 50, 16)        2320      \
_________________________________________________________________\
batch_normalization_3 (Batch (None, 50, 50, 16)        64        \
_________________________________________________________________\
activation_3 (Activation)    (None, 50, 50, 16)        0         \
_________________________________________________________________\
conv2d_4 (Conv2D)            (None, 50, 50, 32)        4640      \
_________________________________________________________________\
batch_normalization_4 (Batch (None, 50, 50, 32)        128       \
_________________________________________________________________\
activation_4 (Activation)    (None, 50, 50, 32)        0         \
_________________________________________________________________\
conv2d_5 (Conv2D)            (None, 25, 25, 32)        9248      \
_________________________________________________________________\
batch_normalization_5 (Batch (None, 25, 25, 32)        128       \
_________________________________________________________________\
activation_5 (Activation)    (None, 25, 25, 32)        0         \
_________________________________________________________________\
conv2d_6 (Conv2D)            (None, 25, 25, 32)        9248      \
_________________________________________________________________\
batch_normalization_6 (Batch (None, 25, 25, 32)        128       \
_________________________________________________________________\
activation_6 (Activation)    (None, 25, 25, 32)        0         \
_________________________________________________________________\
conv2d_7 (Conv2D)            (None, 13, 13, 32)        9248      \
_________________________________________________________________\
batch_normalization_7 (Batch (None, 13, 13, 32)        128       \
_________________________________________________________________\
activation_7 (Activation)    (None, 13, 13, 32)        0         \
_________________________________________________________________\
conv2d_8 (Conv2D)            (None, 13, 13, 48)        13872     \
_________________________________________________________________\
batch_normalization_8 (Batch (None, 13, 13, 48)        192       \
_________________________________________________________________\
activation_8 (Activation)    (None, 13, 13, 48)        0         \
_________________________________________________________________\
conv2d_9 (Conv2D)            (None, 7, 7, 48)          20784     \
_________________________________________________________________\
batch_normalization_9 (Batch (None, 7, 7, 48)          192       \
_________________________________________________________________\
activation_9 (Activation)    (None, 7, 7, 48)          0         \
_________________________________________________________________\
conv2d_10 (Conv2D)           (None, 7, 7, 48)          20784     \
_________________________________________________________________\
batch_normalization_10 (Batc (None, 7, 7, 48)          192       \
_________________________________________________________________\
activation_10 (Activation)   (None, 7, 7, 48)          0         \
_________________________________________________________________\
conv2d_11 (Conv2D)           (None, 4, 4, 48)          20784     \
_________________________________________________________________\
batch_normalization_11 (Batc (None, 4, 4, 48)          192       \
_________________________________________________________________\
activation_11 (Activation)   (None, 4, 4, 48)          0         \
_________________________________________________________________\
conv2d_12 (Conv2D)           (None, 4, 4, 64)          27712     \
_________________________________________________________________\
batch_normalization_12 (Batc (None, 4, 4, 64)          256       \
_________________________________________________________________\
activation_12 (Activation)   (None, 4, 4, 64)          0         \
_________________________________________________________________\
conv2d_13 (Conv2D)           (None, 2, 2, 64)          36928     \
_________________________________________________________________\
batch_normalization_13 (Batc (None, 2, 2, 64)          256       \
_________________________________________________________________\
activation_13 (Activation)   (None, 2, 2, 64)          0         \
_________________________________________________________________\
conv2d_14 (Conv2D)           (None, 2, 2, 64)          36928     \
_________________________________________________________________\
batch_normalization_14 (Batc (None, 2, 2, 64)          256       \
_________________________________________________________________\
activation_14 (Activation)   (None, 2, 2, 64)          0         \
_________________________________________________________________\
conv2d_15 (Conv2D)           (None, 1, 1, 64)          36928     \
_________________________________________________________________\
batch_normalization_15 (Batc (None, 1, 1, 64)          256       \
_________________________________________________________________\
activation_15 (Activation)   (None, 1, 1, 64)          0         \
_________________________________________________________________\
flatten (Flatten)            (None, 64)                0         \
_________________________________________________________________\
d1 (Dense)                   (None, 100)               6500      \
_________________________________________________________________\
bn1 (BatchNormalization)     (None, 100)               400       \
_________________________________________________________________\
d2 (Dense)                   (None, 100)               10100     \
_________________________________________________________________\
bn2 (BatchNormalization)     (None, 100)               400       \
_________________________________________________________________\
relu2 (Activation)           (None, 100)               0         \
_________________________________________________________________\
d3 (Dense)                   (None, 100)               10100     \
_________________________________________________________________\
bn3 (BatchNormalization)     (None, 100)               400       \
_________________________________________________________________\
relu3 (Activation)           (None, 100)               0         \
_________________________________________________________________\
d4 (Dense)                   (None, 2)                 202       \
=================================================================\
Total params: 284,886\
Trainable params: 283,006\
Non-trainable params: 1,880\
_________________________________________________________________\
\
\
\

\f0\b Area Model:
\f1\b0 \
_________________________________________________________________\
Layer (type)                 Output Shape              Param #   \
=================================================================\
reshape_input (InputLayer)   [(None, 200, 200)]        0         \
_________________________________________________________________\
reshape (Reshape)            (None, 200, 200, 1)       0         \
_________________________________________________________________\
conv2d (Conv2D)              (None, 200, 200, 16)      160       \
_________________________________________________________________\
batch_normalization (BatchNo (None, 200, 200, 16)      64        \
_________________________________________________________________\
activation (Activation)      (None, 200, 200, 16)      0         \
_________________________________________________________________\
conv2d_1 (Conv2D)            (None, 100, 100, 16)      2320      \
_________________________________________________________________\
batch_normalization_1 (Batch (None, 100, 100, 16)      64        \
_________________________________________________________________\
activation_1 (Activation)    (None, 100, 100, 16)      0         \
_________________________________________________________________\
conv2d_2 (Conv2D)            (None, 100, 100, 16)      2320      \
_________________________________________________________________\
batch_normalization_2 (Batch (None, 100, 100, 16)      64        \
_________________________________________________________________\
activation_2 (Activation)    (None, 100, 100, 16)      0         \
_________________________________________________________________\
conv2d_3 (Conv2D)            (None, 50, 50, 16)        2320      \
_________________________________________________________________\
batch_normalization_3 (Batch (None, 50, 50, 16)        64        \
_________________________________________________________________\
activation_3 (Activation)    (None, 50, 50, 16)        0         \
_________________________________________________________________\
conv2d_4 (Conv2D)            (None, 50, 50, 32)        4640      \
_________________________________________________________________\
batch_normalization_4 (Batch (None, 50, 50, 32)        128       \
_________________________________________________________________\
activation_4 (Activation)    (None, 50, 50, 32)        0         \
_________________________________________________________________\
conv2d_5 (Conv2D)            (None, 25, 25, 32)        9248      \
_________________________________________________________________\
batch_normalization_5 (Batch (None, 25, 25, 32)        128       \
_________________________________________________________________\
activation_5 (Activation)    (None, 25, 25, 32)        0         \
_________________________________________________________________\
conv2d_6 (Conv2D)            (None, 25, 25, 32)        9248      \
_________________________________________________________________\
batch_normalization_6 (Batch (None, 25, 25, 32)        128       \
_________________________________________________________________\
activation_6 (Activation)    (None, 25, 25, 32)        0         \
_________________________________________________________________\
conv2d_7 (Conv2D)            (None, 13, 13, 32)        9248      \
_________________________________________________________________\
batch_normalization_7 (Batch (None, 13, 13, 32)        128       \
_________________________________________________________________\
activation_7 (Activation)    (None, 13, 13, 32)        0         \
_________________________________________________________________\
conv2d_8 (Conv2D)            (None, 13, 13, 48)        13872     \
_________________________________________________________________\
batch_normalization_8 (Batch (None, 13, 13, 48)        192       \
_________________________________________________________________\
activation_8 (Activation)    (None, 13, 13, 48)        0         \
_________________________________________________________________\
conv2d_9 (Conv2D)            (None, 7, 7, 48)          20784     \
_________________________________________________________________\
batch_normalization_9 (Batch (None, 7, 7, 48)          192       \
_________________________________________________________________\
activation_9 (Activation)    (None, 7, 7, 48)          0         \
_________________________________________________________________\
conv2d_10 (Conv2D)           (None, 7, 7, 48)          20784     \
_________________________________________________________________\
batch_normalization_10 (Batc (None, 7, 7, 48)          192       \
_________________________________________________________________\
activation_10 (Activation)   (None, 7, 7, 48)          0         \
_________________________________________________________________\
conv2d_11 (Conv2D)           (None, 4, 4, 48)          20784     \
_________________________________________________________________\
batch_normalization_11 (Batc (None, 4, 4, 48)          192       \
_________________________________________________________________\
activation_11 (Activation)   (None, 4, 4, 48)          0         \
_________________________________________________________________\
conv2d_12 (Conv2D)           (None, 4, 4, 64)          27712     \
_________________________________________________________________\
batch_normalization_12 (Batc (None, 4, 4, 64)          256       \
_________________________________________________________________\
activation_12 (Activation)   (None, 4, 4, 64)          0         \
_________________________________________________________________\
conv2d_13 (Conv2D)           (None, 2, 2, 64)          36928     \
_________________________________________________________________\
batch_normalization_13 (Batc (None, 2, 2, 64)          256       \
_________________________________________________________________\
activation_13 (Activation)   (None, 2, 2, 64)          0         \
_________________________________________________________________\
conv2d_14 (Conv2D)           (None, 2, 2, 64)          36928     \
_________________________________________________________________\
batch_normalization_14 (Batc (None, 2, 2, 64)          256       \
_________________________________________________________________\
activation_14 (Activation)   (None, 2, 2, 64)          0         \
_________________________________________________________________\
conv2d_15 (Conv2D)           (None, 1, 1, 64)          36928     \
_________________________________________________________________\
batch_normalization_15 (Batc (None, 1, 1, 64)          256       \
_________________________________________________________________\
activation_15 (Activation)   (None, 1, 1, 64)          0         \
_________________________________________________________________\
flatten (Flatten)            (None, 64)                0         \
_________________________________________________________________\
dense (Dense)                (None, 25)                1625      \
_________________________________________________________________\
d1 (Dense)                   (None, 100)               2600      \
_________________________________________________________________\
relu1 (Activation)           (None, 100)               0         \
_________________________________________________________________\
d2 (Dense)                   (None, 2)                 202       \
_________________________________________________________________\
tanh1 (Activation)           (None, 2)                 0         \
=================================================================\
Total params: 261,211\
Trainable params: 259,931\
Non-trainable params: 1,280\
_________________________________________________________________\
\

\f0\b Angle Model:\

\f1\b0 Layer (type)                 Output Shape              Param #   \
=================================================================\
reshape_input (InputLayer)   [(None, 200, 200)]        0         \
_________________________________________________________________\
reshape (Reshape)            (None, 200, 200, 1)       0         \
_________________________________________________________________\
conv2d (Conv2D)              (None, 200, 200, 16)      160       \
_________________________________________________________________\
batch_normalization (BatchNo (None, 200, 200, 16)      64        \
_________________________________________________________________\
activation (Activation)      (None, 200, 200, 16)      0         \
_________________________________________________________________\
conv2d_1 (Conv2D)            (None, 100, 100, 16)      2320      \
_________________________________________________________________\
batch_normalization_1 (Batch (None, 100, 100, 16)      64        \
_________________________________________________________________\
activation_1 (Activation)    (None, 100, 100, 16)      0         \
_________________________________________________________________\
conv2d_2 (Conv2D)            (None, 100, 100, 16)      2320      \
_________________________________________________________________\
batch_normalization_2 (Batch (None, 100, 100, 16)      64        \
_________________________________________________________________\
activation_2 (Activation)    (None, 100, 100, 16)      0         \
_________________________________________________________________\
conv2d_3 (Conv2D)            (None, 50, 50, 16)        2320      \
_________________________________________________________________\
batch_normalization_3 (Batch (None, 50, 50, 16)        64        \
_________________________________________________________________\
activation_3 (Activation)    (None, 50, 50, 16)        0         \
_________________________________________________________________\
conv2d_4 (Conv2D)            (None, 50, 50, 32)        4640      \
_________________________________________________________________\
batch_normalization_4 (Batch (None, 50, 50, 32)        128       \
_________________________________________________________________\
activation_4 (Activation)    (None, 50, 50, 32)        0         \
_________________________________________________________________\
conv2d_5 (Conv2D)            (None, 25, 25, 32)        9248      \
_________________________________________________________________\
batch_normalization_5 (Batch (None, 25, 25, 32)        128       \
_________________________________________________________________\
activation_5 (Activation)    (None, 25, 25, 32)        0         \
_________________________________________________________________\
conv2d_6 (Conv2D)            (None, 25, 25, 32)        9248      \
_________________________________________________________________\
batch_normalization_6 (Batch (None, 25, 25, 32)        128       \
_________________________________________________________________\
activation_6 (Activation)    (None, 25, 25, 32)        0         \
_________________________________________________________________\
conv2d_7 (Conv2D)            (None, 13, 13, 32)        9248      \
_________________________________________________________________\
batch_normalization_7 (Batch (None, 13, 13, 32)        128       \
_________________________________________________________________\
activation_7 (Activation)    (None, 13, 13, 32)        0         \
_________________________________________________________________\
conv2d_8 (Conv2D)            (None, 13, 13, 48)        13872     \
_________________________________________________________________\
batch_normalization_8 (Batch (None, 13, 13, 48)        192       \
_________________________________________________________________\
activation_8 (Activation)    (None, 13, 13, 48)        0         \
_________________________________________________________________\
conv2d_9 (Conv2D)            (None, 7, 7, 48)          20784     \
_________________________________________________________________\
batch_normalization_9 (Batch (None, 7, 7, 48)          192       \
_________________________________________________________________\
activation_9 (Activation)    (None, 7, 7, 48)          0         \
_________________________________________________________________\
conv2d_10 (Conv2D)           (None, 7, 7, 48)          20784     \
_________________________________________________________________\
batch_normalization_10 (Batc (None, 7, 7, 48)          192       \
_________________________________________________________________\
activation_10 (Activation)   (None, 7, 7, 48)          0         \
_________________________________________________________________\
conv2d_11 (Conv2D)           (None, 4, 4, 48)          20784     \
_________________________________________________________________\
batch_normalization_11 (Batc (None, 4, 4, 48)          192       \
_________________________________________________________________\
activation_11 (Activation)   (None, 4, 4, 48)          0         \
_________________________________________________________________\
conv2d_12 (Conv2D)           (None, 4, 4, 64)          27712     \
_________________________________________________________________\
batch_normalization_12 (Batc (None, 4, 4, 64)          256       \
_________________________________________________________________\
activation_12 (Activation)   (None, 4, 4, 64)          0         \
_________________________________________________________________\
conv2d_13 (Conv2D)           (None, 2, 2, 64)          36928     \
_________________________________________________________________\
batch_normalization_13 (Batc (None, 2, 2, 64)          256       \
_________________________________________________________________\
activation_13 (Activation)   (None, 2, 2, 64)          0         \
_________________________________________________________________\
conv2d_14 (Conv2D)           (None, 2, 2, 64)          36928     \
_________________________________________________________________\
batch_normalization_14 (Batc (None, 2, 2, 64)          256       \
_________________________________________________________________\
activation_14 (Activation)   (None, 2, 2, 64)          0         \
_________________________________________________________________\
conv2d_15 (Conv2D)           (None, 1, 1, 64)          36928     \
_________________________________________________________________\
batch_normalization_15 (Batc (None, 1, 1, 64)          256       \
_________________________________________________________________\
activation_15 (Activation)   (None, 1, 1, 64)          0         \
_________________________________________________________________\
flatten (Flatten)            (None, 64)                0         \
_________________________________________________________________\
dense (Dense)                (None, 25)                1625      \
_________________________________________________________________\
batch_normalization_16 (Batc (None, 25)                100       \
_________________________________________________________________\
activation_16 (Activation)   (None, 25)                0         \
_________________________________________________________________\
d1 (Dense)                   (None, 100)               2600      \
_________________________________________________________________\
bn1 (BatchNormalization)     (None, 100)               400       \
_________________________________________________________________\
relu1 (Activation)           (None, 100)               0         \
_________________________________________________________________\
d2 (Dense)                   (None, 2)                 202       \
_________________________________________________________________\
bn2 (BatchNormalization)     (None, 2)                 8         \
_________________________________________________________________\
tanh1 (Activation)           (None, 2)                 0         \
=================================================================\
Total params: 261,719\
Trainable params: 260,185\
Non-trainable params: 1,534\
_________________________________________________________________}